src/lib/libtf/models/v3.tflite (tflite, 40824 bytes, 21 tensors)

model_1/Conv1/Conv2D i1 [8, 3, 3, 1]
0	0xc8	-56
1	0x33	51
2	0x0a	10
3	0x81	-127
4	0x7b	123
5	0x01	1
6	0xd6	-42
7	0x2f	47
8	0x00	0
9	0x3a	58
10	0x7f	127
11	0x24	36
12	0xbd	-67
13	0xb2	-78
14	0xd6	-42
15	0x08	8
16	0xd8	-40
17	0x06	6
18	0x20	32
19	0x1d	29
20	0xd2	-46
21	0x35	53
22	0x46	70
23	0x81	-127
24	0x16	22
25	0x21	33
26	0xc6	-58
27	0x29	41
28	0x34	52
29	0x13	19
30	0x34	52
31	0x49	73
32	0x19	25
33	0xaf	-81
34	0x81	-127
35	0xc6	-58
36	0x04	4
37	0xcb	-53
38	0x2e	46
39	0x0f	15
40	0x81	-127
41	0x6e	110
42	0x04	4
43	0xdb	-37
44	0x1f	31
45	0x02	2
46	0xc7	-57
47	0x00	0
48	0xff	-1
49	0x7f	127
50	0x01	1
51	0x01	1
52	0xb4	-76
53	0xff	-1
54	0xf0	-16
55	0xad	-83
56	0x07	7
57	0xe8	-24
58	0x81	-127
59	0x01	1
60	0xf6	-10
61	0xcd	-51
62	0x0d	13
63	0x2b	43
64	0x81	-127
65	0x1b	27
66	0xed	-19
67	0xfd	-3
68	0xf3	-13
69	0xe8	-24
70	0x4b	75
71	0xf4	-12

model_1/expanded_conv_depthwise_BN/FusedBatchNormV3;model_1/expanded_conv_depthwise/depthwise;model_1/block_5_project/Conv2D i1 [1, 3, 3, 8]
0	0x02	2
1	0x00	0
2	0x0d	13
3	0x12	18
4	0x0a	10
5	0x03	3
6	0x09	9
7	0x26	38
8	0x05	5
9	0xff	-1
10	0xd9	-39
11	0x7f	127
12	0xeb	-21
13	0x03	3
14	0xfc	-4
15	0x23	35
16	0xfe	-2
17	0xff	-1
18	0xf8	-8
19	0x12	18
20	0x02	2
21	0x05	5
22	0xfa	-6
23	0x1a	26
24	0xfe	-2
25	0x02	2
26	0x7f	127
27	0xea	-22
28	0x7f	127
29	0x02	2
30	0x90	-112
31	0x2e	46
32	0x7f	127
33	0x81	-127
34	0x97	-105
35	0x09	9
36	0xa2	-94
37	0x7f	127
38	0xf1	-15
39	0x81	-127
40	0xe6	-26
41	0x08	8
42	0x11	17
43	0xed	-19
44	0x02	2
45	0x02	2
46	0x7f	127
47	0x2b	43
48	0x03	3
49	0x04	4
50	0x0d	13
51	0x09	9
52	0x07	7
53	0x00	0
54	0x10	16
55	0x24	36
56	0x02	2
57	0x07	7
58	0xd3	-45
59	0x03	3
60	0xf3	-13
61	0x02	2
62	0xf6	-10
63	0x96	-106
64	0xfb	-5
65	0x03	3
66	0xfa	-6
67	0x04	4
68	0x03	3
69	0x01	1
70	0xfa	-6
71	0x27	39

model_1/expanded_conv_project/Conv2D i1 [8, 1, 1, 8]
0	0xe9	-23
1	0xfd	-3
2	0xd0	-48
3	0xdd	-35
4	0xf0	-16
5	0x23	35
6	0x81	-127
7	0xf3	-13
8	0x13	19
9	0x61	97
10	0x01	1
11	0x7f	127
12	0x09	9
13	0xfa	-6
14	0xf9	-7
15	0xda	-38
16	0x7f	127
17	0x00	0
18	0xd8	-40
19	0xc6	-58
20	0xb6	-74
21	0x34	52
22	0x5e	94
23	0xc5	-59
24	0x12	18
25	0x81	-127
26	0x29	41
27	0xab	-85
28	0x13	19
29	0xad	-83
30	0x1a	26
31	0x3f	63
32	0x7f	127
33	0xfa	-6
34	0xc5	-59
35	0xf6	-10
36	0x18	24
37	0xfd	-3
38	0x85	-123
39	0xd6	-42
40	0x02	2
41	0xe0	-32
42	0x02	2
43	0x28	40
44	0x03	3
45	0x81	-127
46	0xfe	-2
47	0x0b	11
48	0x7f	127
49	0xe5	-27
50	0x7d	125
51	0x00	0
52	0x69	105
53	0xdc	-36
54	0xfe	-2
55	0x0d	13
56	0x81	-127
57	0xfc	-4
58	0xa7	-89
59	0xfd	-3
60	0x9b	-101
61	0x05	5
62	0x24	36
63	0x0a	10

model_1/block_1_expand/Conv2D i1 [48, 1, 1, 8]
0	0x9b	-101
1	0x9d	-99
2	0x1a	26
3	0x81	-127
4	0xc0	-64
5	0x00	0
6	0xfa	-6
7	0x02	2
8	0x81	-127
9	0xf7	-9
10	0x5d	93
11	0xfc	-4
12	0xcd	-51
13	0x17	23
14	0x01	1
15	0x0c	12
16	0x1d	29
17	0xfc	-4
18	0x14	20
19	0x7f	127
20	0x20	32
21	0xea	-22
22	0xf4	-12
23	0xf4	-12
24	0x9a	-102
25	0xb8	-72
26	0xe5	-27
27	0xf1	-15
28	0x26	38
29	0x7f	127
30	0xd3	-45
31	0xe0	-32
32	0xfb	-5
33	0xde	-34
34	0xfb	-5
35	0x01	1
36	0xf6	-10
37	0x07	7
38	0x81	-127
39	0xba	-70
40	0xfa	-6
41	0xe0	-32
42	0xf3	-13
43	0xfc	-4
44	0xf8	-8
45	0x0a	10
46	0x81	-127
47	0xb6	-74
48	0x7f	127
49	0x07	7
50	0x0f	15
51	0xf3	-13
52	0xbd	-67
53	0x10	16
54	0x01	1
55	0xfa	-6
56	0x81	-127
57	0xe1	-31
58	0xf5	-11
59	0x00	0
60	0x40	64
61	0x09	9
62	0xfc	-4
63	0x0a	10
64	0x16	22
65	0x27	39
66	0xf1	-15
67	0xf5	-11
68	0xe3	-29
69	0x81	-127
70	0x28	40
71	0x13	19
72	0x49	73
73	0x16	22
74	0xf5	-11
75	0xfc	-4
76	0xe7	-25
77	0x00	0
78	0xf9	-7
79	0x7f	127
80	0x71	113
81	0xf5	-11
82	0x88	-120
83	0x0d	13
84	0xa8	-88
85	0xff	-1
86	0x2f	47
87	0x7f	127
88	0x81	-127
89	0x68	104
90	0x01	1
91	0xe0	-32
92	0x5a	90
93	0xc4	-60
94	0x06	6
95	0x1a	26
96	0x7f	127
97	0xdd	-35
98	0x90	-112
99	0x09	9
100	0x2f	47
101	0xfa	-6
102	0xf2	-14
103	0xed	-19
104	0x7f	127
105	0x07	7
106	0x09	9
107	0xef	-17
108	0xe4	-28
109	0x17	23
110	0x03	3
111	0xf2	-14
112	0x86	-122
113	0xa6	-90
114	0x5d	93
115	0xed	-19
116	0x4a	74
117	0xf2	-14
118	0xde	-34
119	0x81	-127
120	0x23	35
121	0x46	70
122	0xff	-1
123	0xf8	-8
124	0xf9	-7
125	0x81	-127
126	0xf2	-14
127	0x09	9
128	0xf6	-10
129	0xc0	-64
130	0x0a	10
131	0x01	1
132	0x0c	12
133	0x7f	127
134	0x0c	12
135	0x07	7
136	0x1a	26
137	0x92	-110
138	0xb0	-80
139	0xf3	-13
140	0xde	-34
141	0x7f	127
142	0xcc	-52
143	0xf1	-15
144	0x27	39
145	0xef	-17
146	0xf2	-14
147	0xf3	-13
148	0xee	-18
149	0x1b	27
150	0x7f	127
151	0xf1	-15
152	0xfa	-6
153	0x16	22
154	0xfd	-3
155	0x81	-127
156	0xf5	-11
157	0x21	33
158	0xfb	-5
159	0xf7	-9
160	0xb3	-77
161	0xe6	-26
162	0x49	73
163	0x0a	10
164	0x38	56
165	0x5f	95
166	0xfd	-3
167	0x81	-127
168	0xe8	-24
169	0xfc	-4
170	0x21	33
171	0xe7	-25
172	0xec	-20
173	0x0d	13
174	0x81	-127
175	0xb2	-78
176	0x47	71
177	0xfe	-2
178	0x0a	10
179	0x7f	127
180	0xf3	-13
181	0xf6	-10
182	0x3c	60
183	0x21	33
184	0x7f	127
185	0xf1	-15
186	0x95	-107
187	0xf7	-9
188	0x23	35
189	0xea	-22
190	0x08	8
191	0x05	5
192	0xe3	-29
193	0x11	17
194	0x18	24
195	0x21	33
196	0x0b	11
197	0x04	4
198	0x81	-127
199	0xac	-84
200	0x7f	127
201	0x0c	12
202	0xaf	-81
203	0x09	9
204	0x11	17
205	0xfb	-5
206	0x09	9
207	0x17	23
208	0xfe	-2
209	0x3a	58
210	0xde	-34
211	0x81	-127
212	0xe2	-30
213	0x1a	26
214	0x02	2
215	0x02	2
216	0x7f	127
217	0x11	17
218	0x93	-109
219	0x01	1
220	0x93	-109
221	0x38	56
222	0x1e	30
223	0x53	83
224	0x81	-127
225	0xe9	-23
226	0xe8	-24
227	0x0c	12
228	0x35	53
229	0x07	7
230	0xfa	-6
231	0x21	33
232	0xf7	-9
233	0x85	-123
234	0xf0	-16
235	0x81	-127
236	0xf8	-8
237	0x19	25
238	0xf0	-16
239	0xe9	-23
240	0x02	2
241	0x5e	94
242	0x7f	127
243	0x23	35
244	0x2a	42
245	0xa0	-96
246	0x72	114
247	0x22	34
248	0xb3	-77
249	0xf9	-7
250	0x81	-127
251	0x33	51
252	0xf9	-7
253	0xe3	-29
254	0x64	100
255	0x63	99

model_1/block_1_depthwise_BN/FusedBatchNormV3;model_1/block_1_depthwise/depthwise;model_1/block_6_expand/Conv2D i1 [1, 3, 3, 48]
0	0xef	-17
1	0xa8	-88
2	0x93	-109
3	0x56	86
4	0xab	-85
5	0x05	5
6	0xa7	-89
7	0xb2	-78
8	0x33	51
9	0x4d	77
10	0x76	118
11	0xdc	-36
12	0x03	3
13	0x05	5
14	0xae	-82
15	0xc9	-55
16	0x60	96
17	0xa4	-92
18	0x1f	31
19	0xd4	-44
20	0xf1	-15
21	0x9b	-101
22	0xd6	-42
23	0xb5	-75
24	0x61	97
25	0x63	99
26	0x05	5
27	0x8f	-113
28	0xfe	-2
29	0xde	-34
30	0x41	65
31	0x43	67
32	0x2a	42
33	0x42	66
34	0x45	69
35	0x10	16
36	0x63	99
37	0x5f	95
38	0x25	37
39	0x07	7
40	0x86	-122
41	0xf8	-8
42	0x1d	29
43	0x34	52
44	0xcc	-52
45	0x14	20
46	0xe1	-31
47	0xa1	-95
48	0x61	97
49	0xfb	-5
50	0x23	35
51	0x4c	76
52	0x81	-127
53	0x2b	43
54	0xc7	-57
55	0x05	5
56	0x5b	91
57	0x6a	106
58	0x67	103
59	0x4a	74
60	0xf5	-11
61	0xbe	-66
62	0x81	-127
63	0x91	-111
64	0x7a	122
65	0xd4	-44
66	0x65	101
67	0xaa	-86
68	0x9d	-99
69	0x7f	127
70	0x7f	127
71	0x22	34
72	0x7f	127
73	0x5d	93
74	0x2e	46
75	0x8a	-118
76	0xae	-82
77	0xd8	-40
78	0x9b	-101
79	0x6f	111
80	0x5c	92
81	0x7f	127
82	0x62	98
83	0x69	105
84	0xf2	-14
85	0x66	102
86	0x41	65
87	0xb6	-74
88	0xad	-83
89	0xb4	-76
90	0x0e	14
91	0xd2	-46
92	0xba	-70
93	0x73	115
94	0xd8	-40
95	0x66	102
96	0x76	118
97	0xf9	-7
98	0x43	67
99	0x3d	61
100	0xaf	-81
101	0x0c	12
102	0xdb	-37
103	0xf6	-10
104	0x14	20
105	0x4f	79
106	0x13	19
107	0xe5	-27
108	0xba	-70
109	0x04	4
110	0xe1	-31
111	0xd7	-41
112	0x20	32
113	0x53	83
114	0x32	50
115	0xee	-18
116	0xcf	-49
117	0xec	-20
118	0xae	-82
119	0x4d	77
120	0x2e	46
121	0x1c	28
122	0x15	21
123	0xd8	-40
124	0xfe	-2
125	0xe7	-25
126	0x1e	30
127	0x20	32
128	0x2b	43
129	0x5c	92
130	0x0e	14
131	0x48	72
132	0x02	2
133	0x1e	30
134	0x26	38
135	0xf5	-11
136	0xc2	-62
137	0xf4	-12
138	0x05	5
139	0x13	19
140	0xe0	-32
141	0x21	33
142	0xf4	-12
143	0x00	0
144	0x2a	42
145	0x81	-127
146	0x76	118
147	0x6f	111
148	0x57	87
149	0xb7	-73
150	0x81	-127
151	0x81	-127
152	0x6f	111
153	0x58	88
154	0x75	117
155	0xd3	-45
156	0x06	6
157	0xfa	-6
158	0x93	-109
159	0xa7	-89
160	0x57	87
161	0x7f	127
162	0x34	52
163	0x97	-105
164	0xd8	-40
165	0x70	112
166	0x1a	26
167	0x81	-127
168	0x6c	108
169	0x7f	127
170	0x6d	109
171	0x89	-119
172	0xf8	-8
173	0x94	-108
174	0xb7	-73
175	0x52	82
176	0x6b	107
177	0xf7	-9
178	0x63	99
179	0x2d	45
180	0x1f	31
181	0x6d	109
182	0x3d	61
183	0xfd	-3
184	0xf5	-11
185	0xec	-20
186	0x6b	107
187	0x6b	107
188	0x94	-108
189	0x2f	47
190	0x95	-107
191	0x72	114
192	0x7f	127
193	0xfa	-6
194	0xfb	-5
195	0x7f	127
196	0x78	120
197	0x81	-127
198	0x99	-103
199	0x01	1
200	0x7f	127
201	0x7f	127
202	0x7f	127
203	0x46	70
204	0xdd	-35
205	0x81	-127
206	0x8e	-114
207	0x81	-127
208	0x7f	127
209	0x3c	60
210	0x7f	127
211	0x81	-127
212	0x81	-127
213	0x8c	-116
214	0x87	-121
215	0x2f	47
216	0x70	112
217	0x7f	127
218	0x7f	127
219	0x81	-127
220	0x81	-127
221	0x83	-125
222	0x7f	127
223	0x7f	127
224	0x7f	127
225	0xfe	-2
226	0x7f	127
227	0x7f	127
228	0xfd	-3
229	0x7f	127
230	0x7f	127
231	0x81	-127
232	0x0b	11
233	0x81	-127
234	0x7f	127
235	0xae	-82
236	0x81	-127
237	0x7f	127
238	0x95	-107
239	0x81	-127
240	0x62	98
241	0xf6	-10
242	0x81	-127
243	0x44	68
244	0x52	82
245	0xc2	-62
246	0xd6	-42
247	0xf4	-12
248	0x1a	26
249	0x53	83
250	0x1e	30
251	0xf2	-14
252	0x81	-127
253	0xfc	-4
254	0xf0	-16
255	0xde	-34

model_1/block_1_project/Conv2D i1 [8, 1, 1, 48]
0	0x2b	43
1	0x67	103
2	0xd9	-39
3	0x40	64
4	0xfc	-4
5	0xfb	-5
6	0xed	-19
7	0x0a	10
8	0x3d	61
9	0xc4	-60
10	0x07	7
11	0xe4	-28
12	0x05	5
13	0x06	6
14	0xe4	-28
15	0xcf	-49
16	0x00	0
17	0xf0	-16
18	0x1b	27
19	0x12	18
20	0xcc	-52
21	0xe0	-32
22	0xdd	-35
23	0x07	7
24	0x0d	13
25	0x11	17
26	0x19	25
27	0xf8	-8
28	0x13	19
29	0x0a	10
30	0xea	-22
31	0x17	23
32	0xc1	-63
33	0x0b	11
34	0x6b	107
35	0x81	-127
36	0xe8	-24
37	0x15	21
38	0xf1	-15
39	0x74	116
40	0xe3	-29
41	0x0a	10
42	0x07	7
43	0xfa	-6
44	0xf5	-11
45	0x20	32
46	0x1c	28
47	0xd3	-45
48	0x00	0
49	0xd0	-48
50	0x29	41
51	0x32	50
52	0xf7	-9
53	0xf6	-10
54	0xf0	-16
55	0xe7	-25
56	0x31	49
57	0xd6	-42
58	0x5e	94
59	0x2c	44
60	0x13	19
61	0x08	8
62	0xd2	-46
63	0xb1	-79
64	0x7f	127
65	0x25	37
66	0x11	17
67	0x0b	11
68	0xb9	-71
69	0x24	36
70	0x26	38
71	0xf1	-15
72	0xd1	-47
73	0xa2	-94
74	0xe5	-27
75	0xd3	-45
76	0xf2	-14
77	0xc5	-59
78	0x2e	46
79	0xdc	-36
80	0xf8	-8
81	0xe8	-24
82	0xe4	-28
83	0x0d	13
84	0x07	7
85	0xed	-19
86	0x58	88
87	0xcf	-49
88	0xf3	-13
89	0x21	33
90	0xc5	-59
91	0x28	40
92	0x4c	76
93	0x40	64
94	0x10	16
95	0x2e	46
96	0x41	65
97	0xeb	-21
98	0xee	-18
99	0xf0	-16
100	0x62	98
101	0x64	100
102	0x3b	59
103	0x4c	76
104	0xe4	-28
105	0xfd	-3
106	0x05	5
107	0xe1	-31
108	0xf9	-7
109	0x30	48
110	0x40	64
111	0x1d	29
112	0xe8	-24
113	0xe1	-31
114	0x32	50
115	0xc5	-59
116	0xdd	-35
117	0xcf	-49
118	0xd3	-45
119	0x36	54
120	0xa5	-91
121	0xa1	-95
122	0x6c	108
123	0x0b	11
124	0x38	56
125	0xc6	-58
126	0xc3	-61
127	0x12	18
128	0x81	-127
129	0x49	73
130	0x5f	95
131	0x0e	14
132	0xf3	-13
133	0xfc	-4
134	0xf6	-10
135	0x16	22
136	0x1b	27
137	0x43	67
138	0x0a	10
139	0xbe	-66
140	0xf1	-15
141	0x0f	15
142	0x31	49
143	0xd5	-43
144	0x51	81
145	0xe2	-30
146	0x12	18
147	0xee	-18
148	0x74	116
149	0x7f	127
150	0x18	24
151	0x30	48
152	0xe0	-32
153	0xe8	-24
154	0x1b	27
155	0x35	53
156	0x81	-127
157	0x24	36
158	0x45	69
159	0x11	17
160	0x00	0
161	0x10	16
162	0x47	71
163	0x91	-111
164	0xa8	-88
165	0x12	18
166	0x22	34
167	0x56	86
168	0x08	8
169	0xe3	-29
170	0x39	57
171	0x1b	27
172	0x32	50
173	0xc3	-61
174	0x02	2
175	0xf0	-16
176	0x8e	-114
177	0x3d	61
178	0xc1	-63
179	0x8a	-118
180	0x17	23
181	0xdb	-37
182	0x41	65
183	0xd0	-48
184	0x33	51
185	0x9f	-97
186	0x92	-110
187	0xe6	-26
188	0xbd	-67
189	0x25	37
190	0xf6	-10
191	0x40	64
192	0x26	38
193	0x28	40
194	0xe7	-25
195	0xda	-38
196	0xf2	-14
197	0xf6	-10
198	0xf0	-16
199	0xeb	-21
200	0x02	2
201	0xff	-1
202	0xfb	-5
203	0xf1	-15
204	0xe1	-31
205	0xee	-18
206	0x42	66
207	0x37	55
208	0xdb	-37
209	0xea	-22
210	0xda	-38
211	0x2f	47
212	0x1f	31
213	0xf4	-12
214	0xef	-17
215	0x03	3
216	0xcf	-49
217	0xd4	-44
218	0xfa	-6
219	0x38	56
220	0xf1	-15
221	0x0f	15
222	0xe8	-24
223	0x1c	28
224	0xdf	-33
225	0xef	-17
226	0x1c	28
227	0x81	-127
228	0xf5	-11
229	0x19	25
230	0x0f	15
231	0x36	54
232	0x09	9
233	0xf8	-8
234	0xf6	-10
235	0xe7	-25
236	0x2f	47
237	0x04	4
238	0x5a	90
239	0xe8	-24
240	0x40	64
241	0x39	57
242	0xaa	-86
243	0x2d	45
244	0x05	5
245	0x06	6
246	0xf8	-8
247	0x20	32
248	0xad	-83
249	0xc7	-57
250	0xc2	-62
251	0xe7	-25
252	0x27	39
253	0x11	17
254	0x29	41
255	0x1c	28

model_1/block_2_expand/Conv2D i1 [48, 1, 1, 8]
0	0xe9	-23
1	0x19	25
2	0x14	20
3	0x81	-127
4	0xb0	-80
5	0x06	6
6	0x1d	29
7	0x76	118
8	0x63	99
9	0x06	6
10	0xf6	-10
11	0x04	4
12	0xa5	-91
13	0x2b	43
14	0x7f	127
15	0x1e	30
16	0xf7	-9
17	0x76	118
18	0xd5	-43
19	0xe2	-30
20	0xd2	-46
21	0x5f	95
22	0xcb	-53
23	0x81	-127
24	0x47	71
25	0xab	-85
26	0x9a	-102
27	0x77	119
28	0x81	-127
29	0xdb	-37
30	0xfb	-5
31	0xdc	-36
32	0x25	37
33	0xbf	-65
34	0x25	37
35	0xee	-18
36	0x81	-127
37	0x02	2
38	0x32	50
39	0x17	23
40	0xf1	-15
41	0x31	49
42	0xf3	-13
43	0xa4	-92
44	0x81	-127
45	0xfb	-5
46	0xe6	-26
47	0x04	4
48	0x30	48
49	0xe7	-25
50	0x20	32
51	0x1f	31
52	0x7f	127
53	0xe4	-28
54	0xf2	-14
55	0x87	-121
56	0x0f	15
57	0x1f	31
58	0x1c	28
59	0x7f	127
60	0x1f	31
61	0xf4	-12
62	0xf9	-7
63	0x13	19
64	0x16	22
65	0x1c	28
66	0x0b	11
67	0xcf	-49
68	0x25	37
69	0x7f	127
70	0x09	9
71	0xe4	-28
72	0x66	102
73	0x26	38
74	0xf8	-8
75	0x0a	10
76	0xc4	-60
77	0xd7	-41
78	0x7f	127
79	0x47	71
80	0x04	4
81	0x3d	61
82	0xb5	-75
83	0xe0	-32
84	0xff	-1
85	0x7f	127
86	0x56	86
87	0xc6	-58
88	0xf2	-14
89	0xdb	-37
90	0x81	-127
91	0x54	84
92	0xc5	-59
93	0x20	32
94	0xf5	-11
95	0x41	65
96	0x94	-108
97	0xa8	-88
98	0x34	52
99	0x30	48
100	0x23	35
101	0x81	-127
102	0xd7	-41
103	0x0e	14
104	0x25	37
105	0x20	32
106	0x1c	28
107	0x33	51
108	0xc5	-59
109	0x7f	127
110	0x0f	15
111	0xdb	-37
112	0x03	3
113	0xac	-84
114	0xfb	-5
115	0xeb	-21
116	0xc4	-60
117	0xc0	-64
118	0x81	-127
119	0x65	101
120	0x98	-104
121	0x2e	46
122	0xf0	-16
123	0x0a	10
124	0x68	104
125	0xfe	-2
126	0x81	-127
127	0xcd	-51
128	0x5f	95
129	0x47	71
130	0xa2	-94
131	0x83	-125
132	0x38	56
133	0x7f	127
134	0x68	104
135	0x2a	42
136	0x9a	-102
137	0x7a	122
138	0x81	-127
139	0x2f	47
140	0xf2	-14
141	0xeb	-21
142	0x18	24
143	0x96	-106
144	0x21	33
145	0xfa	-6
146	0xad	-83
147	0x7f	127
148	0xf6	-10
149	0xd9	-39
150	0xd8	-40
151	0xc8	-56
152	0x7f	127
153	0x0a	10
154	0x0c	12
155	0x20	32
156	0xdb	-37
157	0x02	2
158	0x7e	126
159	0x31	49
160	0x27	39
161	0xb8	-72
162	0xa9	-87
163	0x7f	127
164	0x28	40
165	0xe6	-26
166	0xed	-19
167	0xbf	-65
168	0x1c	28
169	0x36	54
170	0x7f	127
171	0x92	-110
172	0x32	50
173	0xed	-19
174	0x18	24
175	0x94	-108
176	0xb3	-77
177	0xd8	-40
178	0x81	-127
179	0x3b	59
180	0xe3	-29
181	0x19	25
182	0x09	9
183	0x73	115
184	0x43	67
185	0x19	25
186	0x1c	28
187	0x2a	42
188	0x81	-127
189	0x6b	107
190	0x3c	60
191	0xe3	-29
192	0xf8	-8
193	0xfd	-3
194	0x81	-127
195	0x50	80
196	0xda	-38
197	0x1d	29
198	0x23	35
199	0x49	73
200	0x2f	47
201	0xde	-34
202	0xb7	-73
203	0x7f	127
204	0x2b	43
205	0xfe	-2
206	0xe2	-30
207	0xed	-19
208	0xb9	-71
209	0x16	22
210	0x7f	127
211	0x9f	-97
212	0xec	-20
213	0x24	36
214	0x3d	61
215	0xf7	-9
216	0xbc	-68
217	0x4a	74
218	0x7f	127
219	0xff	-1
220	0x16	22
221	0xf1	-15
222	0x48	72
223	0x10	16
224	0xcf	-49
225	0x9f	-97
226	0x28	40
227	0x81	-127
228	0xeb	-21
229	0x0a	10
230	0x00	0
231	0xe5	-27
232	0xba	-70
233	0xa5	-91
234	0xea	-22
235	0x58	88
236	0xfb	-5
237	0x81	-127
238	0xf4	-12
239	0x30	48
240	0x81	-127
241	0x2e	46
242	0x67	103
243	0xe4	-28
244	0x20	32
245	0x28	40
246	0x3c	60
247	0x1f	31
248	0xc7	-57
249	0x31	49
250	0x55	85
251	0x81	-127
252	0xd7	-41
253	0x11	17
254	0x1d	29
255	0x3d	61

model_1/block_2_depthwise_BN/FusedBatchNormV3;model_1/block_2_depthwise/depthwise;model_1/block_6_expand/Conv2D i1 [1, 3, 3, 48]
0	0xfc	-4
1	0xd3	-45
2	0x27	39
3	0xd5	-43
4	0x7f	127
5	0xf7	-9
6	0xfe	-2
7	0xf6	-10
8	0xde	-34
9	0x2c	44
10	0xfa	-6
11	0x0b	11
12	0x4d	77
13	0x07	7
14	0x7f	127
15	0xd9	-39
16	0x0a	10
17	0xea	-22
18	0xde	-34
19	0xf1	-15
20	0xdc	-36
21	0xee	-18
22	0xc5	-59
23	0x1d	29
24	0x81	-127
25	0x2f	47
26	0x28	40
27	0xce	-50
28	0xf0	-16
29	0x18	24
30	0xf0	-16
31	0xfd	-3
32	0xdc	-36
33	0x20	32
34	0x13	19
35	0x01	1
36	0x51	81
37	0x36	54
38	0x24	36
39	0xf8	-8
40	0x46	70
41	0x10	16
42	0xee	-18
43	0x02	2
44	0x9a	-102
45	0xfa	-6
46	0xe0	-32
47	0xd4	-44
48	0xff	-1
49	0xa3	-93
50	0xb8	-72
51	0xd7	-41
52	0xbb	-69
53	0x02	2
54	0x27	39
55	0x15	21
56	0x11	17
57	0xfb	-5
58	0x3e	62
59	0x7f	127
60	0xff	-1
61	0x2a	42
62	0xc5	-59
63	0x7f	127
64	0xfd	-3
65	0xc8	-56
66	0x21	33
67	0xc3	-61
68	0xb1	-79
69	0x81	-127
70	0xaf	-81
71	0x48	72
72	0x96	-106
73	0xaf	-81
74	0x11	17
75	0x7e	126
76	0x0b	11
77	0x22	34
78	0x74	116
79	0x09	9
80	0x81	-127
81	0x83	-125
82	0xd4	-44
83	0x21	33
84	0x7f	127
85	0xa5	-91
86	0x79	121
87	0x0d	13
88	0x3d	61
89	0xf6	-10
90	0xe8	-24
91	0xf6	-10
92	0xc6	-58
93	0xf8	-8
94	0x48	72
95	0x02	2
96	0x11	17
97	0xee	-18
98	0xf4	-12
99	0x7f	127
100	0x32	50
101	0x0c	12
102	0xa9	-87
103	0x02	2
104	0xe1	-31
105	0xd6	-42
106	0xed	-19
107	0xf0	-16
108	0x3b	59
109	0xfa	-6
110	0xce	-50
111	0xd5	-43
112	0x14	20
113	0x0a	10
114	0xef	-17
115	0xf1	-15
116	0x04	4
117	0x03	3
118	0xe5	-27
119	0x0e	14
120	0xd4	-44
121	0xc6	-58
122	0xea	-22
123	0x37	55
124	0xf9	-7
125	0x1f	31
126	0xa9	-87
127	0xfe	-2
128	0x0d	13
129	0x48	72
130	0x14	20
131	0x10	16
132	0x06	6
133	0x54	84
134	0x87	-121
135	0x02	2
136	0x15	21
137	0xfd	-3
138	0xf4	-12
139	0x1b	27
140	0x81	-127
141	0x07	7
142	0xce	-50
143	0x30	48
144	0x90	-112
145	0xc3	-61
146	0x7f	127
147	0xf0	-16
148	0xca	-54
149	0xd2	-46
150	0x53	83
151	0x17	23
152	0x11	17
153	0x61	97
154	0x0e	14
155	0x11	17
156	0x32	50
157	0x19	25
158	0x62	98
159	0x1c	28
160	0x1d	29
161	0x81	-127
162	0x56	86
163	0x2c	44
164	0x50	80
165	0xf5	-11
166	0x36	54
167	0xe0	-32
168	0xe9	-23
169	0xef	-17
170	0x2f	47
171	0xc3	-61
172	0x18	24
173	0x3d	61
174	0x20	32
175	0x37	55
176	0x1f	31
177	0x99	-103
178	0x02	2
179	0x7f	127
180	0x0a	10
181	0x21	33
182	0xdb	-37
183	0x8e	-114
184	0x21	33
185	0x5a	90
186	0xe8	-24
187	0xb2	-78
188	0x1c	28
189	0xa9	-87
190	0xc8	-56
191	0x0d	13
192	0x7f	127
193	0xcb	-53
194	0xb8	-72
195	0xaa	-86
196	0xf4	-12
197	0x81	-127
198	0x7f	127
199	0x7f	127
200	0x7f	127
201	0x10	16
202	0x7f	127
203	0xd9	-39
204	0x81	-127
205	0x12	18
206	0xdd	-35
207	0xd1	-47
208	0x7f	127
209	0xa6	-90
210	0x7f	127
211	0x7f	127
212	0x7f	127
213	0x4f	79
214	0x7f	127
215	0x81	-127
216	0x08	8
217	0xe8	-24
218	0x65	101
219	0xe8	-24
220	0x7f	127
221	0x7f	127
222	0x81	-127
223	0x7f	127
224	0x1d	29
225	0x81	-127
226	0x7f	127
227	0x9a	-102
228	0xbf	-65
229	0x7f	127
230	0xa2	-94
231	0x7f	127
232	0x81	-127
233	0x81	-127
234	0x7f	127
235	0x81	-127
236	0x5c	92
237	0x81	-127
238	0x7f	127
239	0x85	-123
240	0xfb	-5
241	0x99	-103
242	0x0e	14
243	0x48	72
244	0xda	-38
245	0xf6	-10
246	0xc6	-58
247	0x0f	15
248	0xed	-19
249	0x81	-127
250	0xe5	-27
251	0x31	49
252	0x4b	75
253	0x0a	10
254	0xcd	-51
255	0x2d	45

model_1/block_2_project/Conv2D i1 [8, 1, 1, 48]
0	0x1c	28
1	0xd6	-42
2	0x5d	93
3	0x3f	63
4	0x1c	28
5	0xde	-34
6	0x16	22
7	0x05	5
8	0xf9	-7
9	0x30	48
10	0xe0	-32
11	0x0b	11
12	0xd9	-39
13	0xb3	-77
14	0x20	32
15	0x02	2
16	0x98	-104
17	0x38	56
18	0xe0	-32
19	0x36	54
20	0xd9	-39
21	0x3a	58
22	0x00	0
23	0xe6	-26
24	0xf7	-9
25	0xd6	-42
26	0x3f	63
27	0xe6	-26
28	0xee	-18
29	0x10	16
30	0xe4	-28
31	0x64	100
32	0xc3	-61
33	0xf9	-7
34	0xdd	-35
35	0xb4	-76
36	0xc6	-58
37	0xd9	-39
38	0xdb	-37
39	0xf0	-16
40	0xf5	-11
41	0x3b	59
42	0x81	-127
43	0x08	8
44	0x2a	42
45	0x15	21
46	0x17	23
47	0x34	52
48	0xcb	-53
49	0xde	-34
50	0x40	64
51	0xf9	-7
52	0xe3	-29
53	0x1b	27
54	0xdc	-36
55	0xe0	-32
56	0x2c	44
57	0xfb	-5
58	0xff	-1
59	0xe7	-25
60	0xea	-22
61	0x0b	11
62	0x01	1
63	0x16	22
64	0x01	1
65	0x13	19
66	0x0b	11
67	0xfd	-3
68	0xc9	-55
69	0xea	-22
70	0xb9	-71
71	0xe8	-24
72	0x20	32
73	0xd9	-39
74	0xe8	-24
75	0xdd	-35
76	0x16	22
77	0xc0	-64
78	0xf7	-9
79	0x81	-127
80	0xff	-1
81	0xc8	-56
82	0xc4	-60
83	0xb6	-74
84	0xd2	-46
85	0xa9	-87
86	0xea	-22
87	0x1b	27
88	0x2c	44
89	0xea	-22
90	0x5b	91
91	0x98	-104
92	0xd5	-43
93	0xf3	-13
94	0xe9	-23
95	0xf5	-11
96	0xc0	-64
97	0x5b	91
98	0xf6	-10
99	0x29	41
100	0x0f	15
101	0x0a	10
102	0x17	23
103	0xd6	-42
104	0x53	83
105	0xdb	-37
106	0x4d	77
107	0x5c	92
108	0x60	96
109	0x14	20
110	0x20	32
111	0xc1	-63
112	0x67	103
113	0xfd	-3
114	0x05	5
115	0x1b	27
116	0xf3	-13
117	0x0e	14
118	0x11	17
119	0x7f	127
120	0x82	-126
121	0xcf	-49
122	0x11	17
123	0xe8	-24
124	0x02	2
125	0x5b	91
126	0xe9	-23
127	0xac	-84
128	0xe5	-27
129	0xfe	-2
130	0x04	4
131	0xb3	-77
132	0xe6	-26
133	0x01	1
134	0xd9	-39
135	0xef	-17
136	0x60	96
137	0xaf	-81
138	0x14	20
139	0xf9	-7
140	0x14	20
141	0x86	-122
142	0xfd	-3
143	0xf8	-8
144	0x37	55
145	0xf0	-16
146	0xc9	-55
147	0x25	37
148	0x52	82
149	0xad	-83
150	0xfe	-2
151	0x8c	-116
152	0xe2	-30
153	0xfe	-2
154	0xcd	-51
155	0xaf	-81
156	0xe9	-23
157	0x7f	127
158	0xf7	-9
159	0x10	16
160	0xdb	-37
161	0xec	-20
162	0xc3	-61
163	0xcf	-49
164	0x1f	31
165	0x4c	76
166	0xf6	-10
167	0xce	-50
168	0x68	104
169	0x27	39
170	0x39	57
171	0xba	-70
172	0x1b	27
173	0xa9	-87
174	0x39	57
175	0xc4	-60
176	0x33	51
177	0x3b	59
178	0x69	105
179	0xb7	-73
180	0xce	-50
181	0x0d	13
182	0xe8	-24
183	0x2b	43
184	0x1b	27
185	0x59	89
186	0xb2	-78
187	0x1c	28
188	0xfc	-4
189	0x1f	31
190	0x05	5
191	0x25	37
192	0xd6	-42
193	0x1c	28
194	0xd5	-43
195	0x3e	62
196	0x56	86
197	0xe1	-31
198	0x1d	29
199	0xd4	-44
200	0xe0	-32
201	0xf7	-9
202	0xca	-54
203	0x1e	30
204	0xd3	-45
205	0xf1	-15
206	0x04	4
207	0xcd	-51
208	0x0b	11
209	0x3c	60
210	0xe4	-28
211	0xdf	-33
212	0xd8	-40
213	0x23	35
214	0xc5	-59
215	0xc0	-64
216	0x19	25
217	0xf9	-7
218	0x12	18
219	0xdc	-36
220	0x21	33
221	0xe1	-31
222	0xdc	-36
223	0x3b	59
224	0xfa	-6
225	0x44	68
226	0xc1	-63
227	0xbb	-69
228	0xc8	-56
229	0xbf	-65
230	0xdb	-37
231	0x01	1
232	0x3a	58
233	0xc9	-55
234	0x7f	127
235	0x1d	29
236	0x03	3
237	0x52	82
238	0xd0	-48
239	0xcb	-53
240	0x38	56
241	0x0c	12
242	0x4e	78
243	0xf4	-12
244	0xf9	-7
245	0x11	17
246	0x32	50
247	0x1f	31
248	0x7f	127
249	0xf9	-7
250	0x47	71
251	0xfe	-2
252	0x4a	74
253	0x37	55
254	0x1b	27
255	0xc1	-63

model_1/block_3_expand/Conv2D i1 [48, 1, 1, 8]
0	0x29	41
1	0x18	24
2	0xc8	-56
3	0x0f	15
4	0xdf	-33
5	0x29	41
6	0x81	-127
7	0x1d	29
8	0x08	8
9	0xc0	-64
10	0x8d	-115
11	0x00	0
12	0xf5	-11
13	0xe8	-24
14	0x7f	127
15	0x92	-110
16	0x84	-124
17	0xcd	-51
18	0xb5	-75
19	0xd4	-44
20	0xe0	-32
21	0x3a	58
22	0x81	-127
23	0xff	-1
24	0xc1	-63
25	0xda	-38
26	0x0e	14
27	0xf9	-7
28	0xe3	-29
29	0x81	-127
30	0x8b	-117
31	0xeb	-21
32	0xce	-50
33	0x81	-127
34	0xcd	-51
35	0x0f	15
36	0x37	55
37	0x1b	27
38	0xde	-34
39	0xd8	-40
40	0x47	71
41	0xda	-38
42	0x5a	90
43	0x32	50
44	0x81	-127
45	0x42	66
46	0xbb	-69
47	0x9b	-101
48	0x28	40
49	0x81	-127
50	0xc4	-60
51	0xe3	-29
52	0xf6	-10
53	0x38	56
54	0xd7	-41
55	0xae	-82
56	0xe3	-29
57	0xad	-83
58	0xc9	-55
59	0xc8	-56
60	0x46	70
61	0x81	-127
62	0x01	1
63	0x12	18
64	0x31	49
65	0x38	56
66	0x39	57
67	0x3d	61
68	0x19	25
69	0xc7	-57
70	0x03	3
71	0x7f	127
72	0xe4	-28
73	0xc6	-58
74	0xc9	-55
75	0x0c	12
76	0x2c	44
77	0xf1	-15
78	0x7f	127
79	0xf3	-13
80	0xed	-19
81	0x1a	26
82	0x81	-127
83	0x1f	31
84	0x19	25
85	0x18	24
86	0x5e	94
87	0x8b	-117
88	0x08	8
89	0xe1	-31
90	0xe0	-32
91	0x05	5
92	0x81	-127
93	0x15	21
94	0x07	7
95	0x2d	45
96	0x4e	78
97	0x38	56
98	0xe8	-24
99	0x26	38
100	0xbb	-69
101	0x7f	127
102	0x49	73
103	0xf8	-8
104	0xce	-50
105	0xfb	-5
106	0x13	19
107	0xe5	-27
108	0x2a	42
109	0x81	-127
110	0xfa	-6
111	0x4f	79
112	0x9b	-101
113	0xd9	-39
114	0x05	5
115	0x24	36
116	0x15	21
117	0x40	64
118	0x81	-127
119	0x87	-121
120	0x3a	58
121	0x48	72
122	0x2d	45
123	0x09	9
124	0x81	-127
125	0x29	41
126	0x74	116
127	0xc8	-56
128	0x01	1
129	0xc4	-60
130	0x06	6
131	0x40	64
132	0xf2	-14
133	0xc9	-55
134	0x0f	15
135	0x81	-127
136	0xb6	-74
137	0x7f	127
138	0x18	24
139	0xf6	-10
140	0xc7	-57
141	0xce	-50
142	0xad	-83
143	0xb3	-77
144	0x63	99
145	0x7f	127
146	0xad	-83
147	0xa4	-92
148	0x57	87
149	0x6c	108
150	0xa8	-88
151	0xb2	-78
152	0xe4	-28
153	0x4b	75
154	0xf5	-11
155	0x11	17
156	0x81	-127
157	0x02	2
158	0xc3	-61
159	0x9f	-97
160	0x81	-127
161	0xfa	-6
162	0x09	9
163	0x0b	11
164	0x12	18
165	0x13	19
166	0x69	105
167	0x31	49
168	0xe4	-28
169	0xfc	-4
170	0x3e	62
171	0x0f	15
172	0xa6	-90
173	0x85	-123
174	0x81	-127
175	0x13	19
176	0xfb	-5
177	0xde	-34
178	0xd4	-44
179	0xfb	-5
180	0x81	-127
181	0xff	-1
182	0x07	7
183	0x38	56
184	0x3b	59
185	0x02	2
186	0xe8	-24
187	0xf5	-11
188	0x7f	127
189	0x47	71
190	0xa1	-95
191	0x57	87
192	0x7f	127
193	0x0d	13
194	0xc9	-55
195	0x1e	30
196	0xa0	-96
197	0x03	3
198	0x13	19
199	0xf5	-11
200	0x27	39
201	0xc7	-57
202	0x31	49
203	0x64	100
204	0xc9	-55
205	0x81	-127
206	0x1e	30
207	0x67	103
208	0x17	23
209	0x7f	127
210	0x03	3
211	0x45	69
212	0x4c	76
213	0xe7	-25
214	0x19	25
215	0xed	-19
216	0x81	-127
217	0x76	118
218	0x37	55
219	0xf5	-11
220	0x7e	126
221	0xbd	-67
222	0x00	0
223	0x5c	92
224	0xc0	-64
225	0xb7	-73
226	0xca	-54
227	0xe7	-25
228	0x51	81
229	0x81	-127
230	0x11	17
231	0xef	-17
232	0xd0	-48
233	0xe4	-28
234	0x2d	45
235	0x2a	42
236	0x7f	127
237	0x9e	-98
238	0xb2	-78
239	0x44	68
240	0x7f	127
241	0x2e	46
242	0x83	-125
243	0x93	-109
244	0xae	-82
245	0x9d	-99
246	0xb6	-74
247	0xb9	-71
248	0x21	33
249	0x04	4
250	0x28	40
251	0x42	66
252	0x81	-127
253	0x08	8
254	0x2a	42
255	0x01	1

model_1/block_3_depthwise_BN/FusedBatchNormV3;model_1/block_3_depthwise/depthwise;model_1/block_6_expand/Conv2D i1 [1, 3, 3, 48]
0	0x37	55
1	0xcd	-51
2	0xf4	-12
3	0x20	32
4	0x57	87
5	0x38	56
6	0xd8	-40
7	0xba	-70
8	0x07	7
9	0x27	39
10	0x5d	93
11	0xb0	-80
12	0xe3	-29
13	0x39	57
14	0x5d	93
15	0x38	56
16	0x44	68
17	0xc6	-58
18	0x37	55
19	0x4d	77
20	0xb0	-80
21	0xa1	-95
22	0x3b	59
23	0x66	102
24	0xd9	-39
25	0xef	-17
26	0x5e	94
27	0x65	101
28	0x65	101
29	0x63	99
30	0xd8	-40
31	0x43	67
32	0x43	67
33	0xbc	-68
34	0x88	-120
35	0xc9	-55
36	0x63	99
37	0xd0	-48
38	0x43	67
39	0x1e	30
40	0x9e	-98
41	0x24	36
42	0x32	50
43	0xab	-85
44	0x5f	95
45	0x7f	127
46	0x39	57
47	0xc2	-62
48	0x51	81
49	0xb4	-76
50	0xc6	-58
51	0x3d	61
52	0x6b	107
53	0x3e	62
54	0xbe	-66
55	0xa8	-88
56	0x19	25
57	0x3b	59
58	0x67	103
59	0x98	-104
60	0xb4	-76
61	0x4d	77
62	0x7f	127
63	0x4f	79
64	0x49	73
65	0xa8	-88
66	0x2a	42
67	0x65	101
68	0xa9	-87
69	0x9f	-97
70	0x48	72
71	0x69	105
72	0xc9	-55
73	0xd2	-46
74	0x7f	127
75	0x68	104
76	0x67	103
77	0x7f	127
78	0xc8	-56
79	0x51	81
80	0x48	72
81	0x9e	-98
82	0x81	-127
83	0xc5	-59
84	0x62	98
85	0xb3	-77
86	0x4f	79
87	0x35	53
88	0x83	-125
89	0x49	73
90	0x35	53
91	0xb8	-72
92	0x7e	126
93	0x77	119
94	0x3f	63
95	0xb0	-80
96	0x34	52
97	0xc8	-56
98	0xd8	-40
99	0x19	25
100	0x25	37
101	0x0a	10
102	0xdd	-35
103	0xe0	-32
104	0x13	19
105	0x0b	11
106	0x0f	15
107	0xd4	-44
108	0xc1	-63
109	0x1b	27
110	0x19	25
111	0x21	33
112	0x17	23
113	0x01	1
114	0x1d	29
115	0x20	32
116	0xe7	-25
117	0xb5	-75
118	0x1f	31
119	0x2c	44
120	0xd7	-41
121	0x00	0
122	0x2a	42
123	0x20	32
124	0x2a	42
125	0x1d	29
126	0xe7	-25
127	0x09	9
128	0x1b	27
129	0xb6	-74
130	0xcf	-49
131	0xd9	-39
132	0x30	48
133	0xe2	-30
134	0x00	0
135	0x2b	43
136	0xd5	-43
137	0x07	7
138	0xfd	-3
139	0xec	-20
140	0x30	48
141	0x22	34
142	0x12	18
143	0xca	-54
144	0x23	35
145	0xb3	-77
146	0xbf	-65
147	0x4a	74
148	0x66	102
149	0x5a	90
150	0xa7	-89
151	0x93	-109
152	0x5c	92
153	0x64	100
154	0x5c	92
155	0x9e	-98
156	0xb6	-74
157	0x59	89
158	0x6f	111
159	0x56	86
160	0x6a	106
161	0xa2	-94
162	0x34	52
163	0x6c	108
164	0x94	-108
165	0x88	-120
166	0x4c	76
167	0x78	120
168	0x94	-108
169	0xb3	-77
170	0x68	104
171	0x71	113
172	0x7f	127
173	0x58	88
174	0xaf	-81
175	0x66	102
176	0x67	103
177	0xa1	-95
178	0xaa	-86
179	0x8a	-118
180	0x62	98
181	0xa0	-96
182	0x67	103
183	0x5b	91
184	0x9e	-98
185	0x53	83
186	0x5a	90
187	0x8a	-118
188	0x62	98
189	0x7b	123
190	0x23	35
191	0xac	-84
192	0x24	36
193	0x81	-127
194	0x81	-127
195	0x7f	127
196	0x7f	127
197	0x7f	127
198	0x81	-127
199	0x81	-127
200	0x7f	127
201	0x7f	127
202	0x7f	127
203	0x81	-127
204	0x82	-126
205	0x7f	127
206	0x7f	127
207	0x7f	127
208	0x7f	127
209	0x81	-127
210	0x2a	42
211	0x7f	127
212	0x81	-127
213	0x81	-127
214	0x7f	127
215	0x7f	127
216	0x81	-127
217	0x81	-127
218	0x78	120
219	0x7f	127
220	0x7d	125
221	0x6c	108
222	0x81	-127
223	0x7f	127
224	0x7f	127
225	0x81	-127
226	0xa9	-87
227	0x81	-127
228	0x7f	127
229	0x81	-127
230	0x7f	127
231	0x7f	127
232	0x81	-127
233	0x7f	127
234	0x7f	127
235	0x81	-127
236	0x7f	127
237	0x72	114
238	0x2e	46
239	0x81	-127
240	0xfd	-3
241	0xaa	-86
242	0xac	-84
243	0x40	64
244	0x3c	60
245	0x16	22
246	0xb3	-77
247	0xe0	-32
248	0x3a	58
249	0x22	34
250	0x0d	13
251	0xb9	-71
252	0xab	-85
253	0x28	40
254	0x1c	28
255	0x3b	59

model_1/block_3_project/Conv2D i1 [8, 1, 1, 48]
0	0xeb	-21
1	0xe3	-29
2	0x2a	42
3	0xc9	-55
4	0x34	52
5	0x55	85
6	0x40	64
7	0x59	89
8	0x64	100
9	0xd7	-41
10	0xee	-18
11	0x35	53
12	0xe0	-32
13	0xed	-19
14	0x15	21
15	0xf1	-15
16	0x26	38
17	0x2c	44
18	0x0a	10
19	0xd1	-47
20	0xe0	-32
21	0x15	21
22	0xae	-82
23	0xd9	-39
24	0x1c	28
25	0xf4	-12
26	0x10	16
27	0xb6	-74
28	0xe1	-31
29	0x16	22
30	0x29	41
31	0x1a	26
32	0x1a	26
33	0x29	41
34	0x39	57
35	0x0f	15
36	0x75	117
37	0xcd	-51
38	0xb9	-71
39	0xff	-1
40	0xcd	-51
41	0xbc	-68
42	0xe5	-27
43	0xfc	-4
44	0xbb	-69
45	0xa7	-89
46	0x81	-127
47	0x35	53
48	0xf2	-14
49	0x00	0
50	0xd2	-46
51	0x34	52
52	0x06	6
53	0x11	17
54	0xd7	-41
55	0xea	-22
56	0xc2	-62
57	0x1b	27
58	0x0f	15
59	0x56	86
60	0xe5	-27
61	0x07	7
62	0xe7	-25
63	0x7f	127
64	0x27	39
65	0x3f	63
66	0x0a	10
67	0xdf	-33
68	0xd0	-48
69	0xe9	-23
70	0xbf	-65
71	0x19	25
72	0x0f	15
73	0xf5	-11
74	0xee	-18
75	0xab	-85
76	0x36	54
77	0xfa	-6
78	0xc8	-56
79	0xc0	-64
80	0x40	64
81	0xe0	-32
82	0xdf	-33
83	0xc6	-58
84	0x22	34
85	0x23	35
86	0x33	51
87	0xd0	-48
88	0x04	4
89	0x42	66
90	0x35	53
91	0xd3	-45
92	0x01	1
93	0xda	-38
94	0xc4	-60
95	0xe6	-26
96	0x0b	11
97	0xb7	-73
98	0xe7	-25
99	0x00	0
100	0xde	-34
101	0x0d	13
102	0x06	6
103	0x0d	13
104	0x71	113
105	0x10	16
106	0xf6	-10
107	0xf4	-12
108	0xe6	-26
109	0xb8	-72
110	0x21	33
111	0x04	4
112	0xfc	-4
113	0xbe	-66
114	0xe6	-26
115	0xf4	-12
116	0x9c	-100
117	0x32	50
118	0x03	3
119	0x22	34
120	0x0e	14
121	0x35	53
122	0xdf	-33
123	0xe7	-25
124	0xeb	-21
125	0xde	-34
126	0x2d	45
127	0xcd	-51
128	0x97	-105
129	0x23	35
130	0xd3	-45
131	0x39	57
132	0xbe	-66
133	0x3e	62
134	0xec	-20
135	0xec	-20
136	0x7f	127
137	0xef	-17
138	0xfe	-2
139	0x2f	47
140	0x1c	28
141	0x2f	47
142	0xc7	-57
143	0xdd	-35
144	0xe5	-27
145	0x8a	-118
146	0x5d	93
147	0x40	64
148	0x19	25
149	0x9b	-101
150	0xeb	-21
151	0xf6	-10
152	0x81	-127
153	0x79	121
154	0x3a	58
155	0xcd	-51
156	0x31	49
157	0x09	9
158	0xed	-19
159	0x1a	26
160	0x38	56
161	0x20	32
162	0xe7	-25
163	0x31	49
164	0x4a	74
165	0x51	81
166	0x27	39
167	0xc3	-61
168	0x0a	10
169	0x55	85
170	0x42	66
171	0x24	36
172	0xdc	-36
173	0xbb	-69
174	0x0c	12
175	0x12	18
176	0xe8	-24
177	0x04	4
178	0x33	51
179	0x0f	15
180	0xf3	-13
181	0xac	-84
182	0xd6	-42
183	0x2f	47
184	0xe5	-27
185	0xf5	-11
186	0x17	23
187	0xb8	-72
188	0xae	-82
189	0x16	22
190	0xfc	-4
191	0x1b	27
192	0xfc	-4
193	0x37	55
194	0xf1	-15
195	0x45	69
196	0x1c	28
197	0xfe	-2
198	0x0c	12
199	0x01	1
200	0xd2	-46
201	0x44	68
202	0x2a	42
203	0x49	73
204	0x01	1
205	0x11	17
206	0x37	55
207	0x0a	10
208	0x04	4
209	0x9b	-101
210	0xfd	-3
211	0xf3	-13
212	0x5b	91
213	0xf3	-13
214	0x9f	-97
215	0x3d	61
216	0x45	69
217	0xee	-18
218	0x22	34
219	0x20	32
220	0x28	40
221	0x1b	27
222	0xf4	-12
223	0xc6	-58
224	0xcb	-53
225	0x7f	127
226	0x06	6
227	0x0b	11
228	0x32	50
229	0xee	-18
230	0x17	23
231	0x1f	31
232	0xe8	-24
233	0x2c	44
234	0x00	0
235	0xef	-17
236	0x02	2
237	0xd7	-41
238	0xe7	-25
239	0x12	18
240	0xe8	-24
241	0x08	8
242	0xf2	-14
243	0xc3	-61
244	0x8a	-118
245	0x1c	28
246	0x74	116
247	0x18	24
248	0x0f	15
249	0x32	50
250	0xe0	-32
251	0xe4	-28
252	0x9e	-98
253	0xfa	-6
254	0x3e	62
255	0xd8	-40

model_1/block_4_expand/Conv2D i1 [48, 1, 1, 8]
0	0xb0	-80
1	0x81	-127
2	0xde	-34
3	0x21	33
4	0xe2	-30
5	0xf8	-8
6	0x32	50
7	0xd3	-45
8	0xfa	-6
9	0x7f	127
10	0x28	40
11	0xa8	-88
12	0x01	1
13	0xac	-84
14	0xba	-70
15	0x57	87
16	0x81	-127
17	0xc0	-64
18	0x23	35
19	0x0c	12
20	0x47	71
21	0x03	3
22	0x25	37
23	0xf1	-15
24	0x01	1
25	0xdb	-37
26	0x81	-127
27	0xc4	-60
28	0x19	25
29	0xc8	-56
30	0xe2	-30
31	0x3c	60
32	0xb1	-79
33	0x85	-123
34	0x5f	95
35	0xd4	-44
36	0x7f	127
37	0xcb	-53
38	0x2c	44
39	0x07	7
40	0xe2	-30
41	0x3b	59
42	0x38	56
43	0xa7	-89
44	0x65	101
45	0x1b	27
46	0xcb	-53
47	0x7f	127
48	0x81	-127
49	0x54	84
50	0x34	52
51	0x42	66
52	0xd7	-41
53	0x06	6
54	0x1f	31
55	0x85	-123
56	0x36	54
57	0xf9	-7
58	0x34	52
59	0x2a	42
60	0x2e	46
61	0x81	-127
62	0x08	8
63	0x5f	95
64	0x04	4
65	0x48	72
66	0xf5	-11
67	0xe2	-30
68	0x1b	27
69	0x6b	107
70	0x7f	127
71	0xbc	-68
72	0x5d	93
73	0x7f	127
74	0x09	9
75	0xbb	-69
76	0xa0	-96
77	0xb9	-71
78	0xd2	-46
79	0x75	117
80	0x15	21
81	0xf6	-10
82	0x1e	30
83	0xfb	-5
84	0xea	-22
85	0x1f	31
86	0x81	-127
87	0xbd	-67
88	0xb5	-75
89	0x03	3
90	0xa7	-89
91	0xb8	-72
92	0x7f	127
93	0x1b	27
94	0x24	36
95	0x33	51
96	0x4b	75
97	0x1c	28
98	0xef	-17
99	0xf8	-8
100	0x7f	127
101	0x5e	94
102	0x09	9
103	0xff	-1
104	0x81	-127
105	0x8a	-118
106	0xf8	-8
107	0x32	50
108	0xa4	-92
109	0x2e	46
110	0x3e	62
111	0x06	6
112	0xef	-17
113	0x5c	92
114	0xb0	-80
115	0x77	119
116	0xcd	-51
117	0x7f	127
118	0xe3	-29
119	0x2f	47
120	0xfe	-2
121	0xa9	-87
122	0xd3	-45
123	0xa2	-94
124	0x7f	127
125	0x49	73
126	0xe5	-27
127	0x44	68
128	0x49	73
129	0xb5	-75
130	0xf9	-7
131	0x2b	43
132	0x1f	31
133	0xea	-22
134	0x27	39
135	0x81	-127
136	0xb5	-75
137	0xac	-84
138	0x81	-127
139	0x75	117
140	0x0f	15
141	0x6a	106
142	0x4f	79
143	0x88	-120
144	0x48	72
145	0xf4	-12
146	0x7f	127
147	0x03	3
148	0xdc	-36
149	0x9b	-101
150	0xa9	-87
151	0xe0	-32
152	0xda	-38
153	0x7f	127
154	0x2b	43
155	0x14	20
156	0x70	112
157	0x8c	-116
158	0xa6	-90
159	0xd1	-47
160	0xb4	-76
161	0xee	-18
162	0x81	-127
163	0xdc	-36
164	0x23	35
165	0xfa	-6
166	0xf9	-7
167	0xfa	-6
168	0x8f	-113
169	0xf5	-11
170	0x19	25
171	0x4e	78
172	0xab	-85
173	0x81	-127
174	0x78	120
175	0xd2	-46
176	0x2f	47
177	0xf4	-12
178	0x81	-127
179	0xb6	-74
180	0xe3	-29
181	0x03	3
182	0xf1	-15
183	0x2f	47
184	0xe4	-28
185	0x25	37
186	0x7f	127
187	0xed	-19
188	0x9d	-99
189	0x25	37
190	0xf9	-7
191	0x8b	-117
192	0xbc	-68
193	0x58	88
194	0x3a	58
195	0x61	97
196	0x7f	127
197	0x63	99
198	0xec	-20
199	0xe2	-30
200	0xcf	-49
201	0x81	-127
202	0xc2	-62
203	0x24	36
204	0xc4	-60
205	0x2b	43
206	0x2e	46
207	0xfe	-2
208	0x6e	110
209	0x70	112
210	0x81	-127
211	0xc9	-55
212	0x9b	-101
213	0xe6	-26
214	0xc5	-59
215	0x1b	27
216	0x38	56
217	0x33	51
218	0xc1	-63
219	0x0d	13
220	0x81	-127
221	0x16	22
222	0xe1	-31
223	0xec	-20
224	0xd3	-45
225	0x3a	58
226	0x24	36
227	0x99	-103
228	0x60	96
229	0x7b	123
230	0x81	-127
231	0x8e	-114
232	0x33	51
233	0xfe	-2
234	0xf1	-15
235	0xbb	-69
236	0x81	-127
237	0x07	7
238	0x0f	15
239	0xc7	-57
240	0xa5	-91
241	0xfb	-5
242	0x29	41
243	0x7f	127
244	0x2e	46
245	0x11	17
246	0xde	-34
247	0xeb	-21
248	0x0c	12
249	0x81	-127
250	0x07	7
251	0xb0	-80
252	0x91	-111
253	0x45	69
254	0xcb	-53
255	0x82	-126

model_1/block_4_depthwise_BN/FusedBatchNormV3;model_1/block_4_depthwise/depthwise;model_1/block_6_expand/Conv2D i1 [1, 3, 3, 48]
0	0xc8	-56
1	0x14	20
2	0x30	48
3	0x09	9
4	0x7f	127
5	0xd0	-48
6	0x10	16
7	0x00	0
8	0x22	34
9	0x21	33
10	0x1b	27
11	0xeb	-21
12	0x04	4
13	0x13	19
14	0xa9	-87
15	0x1a	26
16	0x5b	91
17	0xca	-54
18	0xe9	-23
19	0x3c	60
20	0xe3	-29
21	0x05	5
22	0xd0	-48
23	0xf9	-7
24	0xf9	-7
25	0xfb	-5
26	0x24	36
27	0xda	-38
28	0xea	-22
29	0x7f	127
30	0x33	51
31	0xa8	-88
32	0xd1	-47
33	0x68	104
34	0x77	119
35	0xcd	-51
36	0x0c	12
37	0xc7	-57
38	0x81	-127
39	0xe1	-31
40	0x11	17
41	0xec	-20
42	0x01	1
43	0xc1	-63
44	0x00	0
45	0xd9	-39
46	0x84	-124
47	0x10	16
48	0xc0	-64
49	0x5b	91
50	0xf2	-14
51	0x24	36
52	0xeb	-21
53	0xbb	-69
54	0x74	116
55	0xe8	-24
56	0x52	82
57	0x11	17
58	0x26	38
59	0x7f	127
60	0x4f	79
61	0x7f	127
62	0xd8	-40
63	0x19	25
64	0x6c	108
65	0xaf	-81
66	0x01	1
67	0x60	96
68	0xd6	-42
69	0xe3	-29
70	0x68	104
71	0x96	-106
72	0x04	4
73	0x2b	43
74	0x95	-107
75	0x18	24
76	0xed	-19
77	0x9f	-97
78	0x7f	127
79	0x93	-109
80	0x81	-127
81	0xac	-84
82	0x06	6
83	0xe1	-31
84	0xc1	-63
85	0xe9	-23
86	0x8d	-115
87	0x12	18
88	0xcb	-53
89	0xe6	-26
90	0x1b	27
91	0x81	-127
92	0x1b	27
93	0xb6	-74
94	0x1a	26
95	0x45	69
96	0xe4	-28
97	0x0b	11
98	0x15	21
99	0x00	0
100	0x3c	60
101	0xda	-38
102	0x0f	15
103	0xf8	-8
104	0x31	49
105	0x1c	28
106	0xee	-18
107	0xc9	-55
108	0xf0	-16
109	0x01	1
110	0xba	-70
111	0x2a	42
112	0x43	67
113	0xbf	-65
114	0xf2	-14
115	0x2d	45
116	0xee	-18
117	0xf6	-10
118	0xca	-54
119	0x02	2
120	0x24	36
121	0xfb	-5
122	0x16	22
123	0x93	-109
124	0xe3	-29
125	0x37	55
126	0xe0	-32
127	0x81	-127
128	0x15	21
129	0xf8	-8
130	0x73	115
131	0xc3	-61
132	0x10	16
133	0xd8	-40
134	0xac	-84
135	0x06	6
136	0x17	23
137	0xef	-17
138	0x13	19
139	0xd0	-48
140	0xef	-17
141	0xb5	-75
142	0x81	-127
143	0xea	-22
144	0x81	-127
145	0x7f	127
146	0xfd	-3
147	0xc2	-62
148	0xf6	-10
149	0xc4	-60
150	0x06	6
151	0xf4	-12
152	0x33	51
153	0x17	23
154	0x19	25
155	0x30	48
156	0x4d	77
157	0x4a	74
158	0xba	-70
159	0x23	35
160	0x7f	127
161	0x85	-123
162	0x0a	10
163	0x4e	78
164	0xe5	-27
165	0xbe	-66
166	0xa2	-94
167	0xe1	-31
168	0x81	-127
169	0xf6	-10
170	0xec	-20
171	0x11	17
172	0xf9	-7
173	0xfc	-4
174	0x4d	77
175	0x9b	-101
176	0xc4	-60
177	0x7f	127
178	0x8c	-116
179	0xc7	-57
180	0x23	35
181	0xc3	-61
182	0x29	41
183	0x38	56
184	0xa4	-92
185	0x20	32
186	0xa6	-90
187	0x38	56
188	0xf7	-9
189	0xa4	-92
190	0x07	7
191	0xc7	-57
192	0xff	-1
193	0x5e	94
194	0x7f	127
195	0x7f	127
196	0xc4	-60
197	0x45	69
198	0x81	-127
199	0x7f	127
200	0x7f	127
201	0x81	-127
202	0xc0	-64
203	0x44	68
204	0x7f	127
205	0x61	97
206	0x7f	127
207	0xae	-82
208	0xb3	-77
209	0xa2	-94
210	0x7f	127
211	0x05	5
212	0x81	-127
213	0x7f	127
214	0x7f	127
215	0x0c	12
216	0x71	113
217	0x71	113
218	0x4b	75
219	0x7f	127
220	0x7f	127
221	0xab	-85
222	0x63	99
223	0xec	-20
224	0xc4	-60
225	0x9c	-100
226	0xe3	-29
227	0x81	-127
228	0x7f	127
229	0x7f	127
230	0x5d	93
231	0x3e	62
232	0xcb	-53
233	0x7f	127
234	0xdb	-37
235	0x4c	76
236	0x7f	127
237	0x3f	63
238	0xff	-1
239	0x81	-127
240	0xaa	-86
241	0x40	64
242	0xe5	-27
243	0xd3	-45
244	0xb2	-78
245	0x92	-110
246	0x0b	11
247	0xe4	-28
248	0x0e	14
249	0x08	8
250	0x30	48
251	0x35	53
252	0x1e	30
253	0x42	66
254	0xc1	-63
255	0x7f	127

model_1/block_4_project/Conv2D i1 [8, 1, 1, 48]
0	0x36	54
1	0x36	54
2	0xae	-82
3	0x36	54
4	0x0a	10
5	0x1b	27
6	0xa2	-94
7	0xda	-38
8	0x0a	10
9	0xf1	-15
10	0xf8	-8
11	0xd8	-40
12	0xee	-18
13	0xfd	-3
14	0x29	41
15	0xfd	-3
16	0x35	53
17	0xf1	-15
18	0x2a	42
19	0xec	-20
20	0x16	22
21	0xd7	-41
22	0x2c	44
23	0x01	1
24	0x0a	10
25	0xe0	-32
26	0xe8	-24
27	0x09	9
28	0xf1	-15
29	0x06	6
30	0xe9	-23
31	0xfe	-2
32	0x34	52
33	0x1a	26
34	0x12	18
35	0x0b	11
36	0x7f	127
37	0x37	55
38	0x1d	29
39	0xe1	-31
40	0x00	0
41	0xe8	-24
42	0xf1	-15
43	0xe7	-25
44	0x4e	78
45	0x1c	28
46	0x10	16
47	0xcf	-49
48	0x4e	78
49	0x21	33
50	0x16	22
51	0xff	-1
52	0x22	34
53	0x56	86
54	0xf0	-16
55	0xdf	-33
56	0x2b	43
57	0x4a	74
58	0xd0	-48
59	0xb9	-71
60	0x7a	122
61	0xef	-17
62	0x0b	11
63	0x2c	44
64	0x1a	26
65	0x28	40
66	0x13	19
67	0xa9	-87
68	0x7f	127
69	0xdf	-33
70	0x2b	43
71	0x35	53
72	0x27	39
73	0x13	19
74	0x2a	42
75	0x08	8
76	0x21	33
77	0xcc	-52
78	0x33	51
79	0x48	72
80	0x3a	58
81	0x76	118
82	0x05	5
83	0x75	117
84	0x3b	59
85	0x11	17
86	0x1b	27
87	0x14	20
88	0x56	86
89	0x13	19
90	0x19	25
91	0x1d	29
92	0x17	23
93	0x2c	44
94	0x6c	108
95	0xb6	-74
96	0xea	-22
97	0x06	6
98	0x45	69
99	0x7f	127
100	0xd5	-43
101	0x11	17
102	0x00	0
103	0x3d	61
104	0x1e	30
105	0x42	66
106	0x1d	29
107	0xb7	-73
108	0xd9	-39
109	0x68	104
110	0x20	32
111	0x32	50
112	0xad	-83
113	0xa0	-96
114	0x4e	78
115	0x05	5
116	0xf7	-9
117	0x39	57
118	0xca	-54
119	0xb8	-72
120	0xee	-18
121	0xe1	-31
122	0x16	22
123	0x07	7
124	0x98	-104
125	0x11	17
126	0x06	6
127	0xf8	-8
128	0xe3	-29
129	0xde	-34
130	0xb5	-75
131	0xd6	-42
132	0x15	21
133	0x1a	26
134	0xb3	-77
135	0xed	-19
136	0xe8	-24
137	0xd6	-42
138	0xe8	-24
139	0x18	24
140	0x40	64
141	0xbb	-69
142	0xea	-22
143	0x15	21
144	0xe1	-31
145	0x32	50
146	0xba	-70
147	0xf3	-13
148	0x19	25
149	0xac	-84
150	0x0b	11
151	0x40	64
152	0x7b	123
153	0xac	-84
154	0xd4	-44
155	0x13	19
156	0xfe	-2
157	0xf2	-14
158	0x07	7
159	0x3d	61
160	0x1c	28
161	0x02	2
162	0xe6	-26
163	0xe4	-28
164	0xf3	-13
165	0x11	17
166	0xab	-85
167	0x2d	45
168	0xe5	-27
169	0xe6	-26
170	0x32	50
171	0xec	-20
172	0x43	67
173	0xdf	-33
174	0x29	41
175	0xc1	-63
176	0x21	33
177	0xf1	-15
178	0xe4	-28
179	0xd2	-46
180	0x81	-127
181	0xf7	-9
182	0xac	-84
183	0x0c	12
184	0xe8	-24
185	0xc0	-64
186	0x32	50
187	0x01	1
188	0xc2	-62
189	0x12	18
190	0xf0	-16
191	0xdc	-36
192	0x24	36
193	0xe5	-27
194	0x10	16
195	0xea	-22
196	0xc1	-63
197	0x44	68
198	0x17	23
199	0x4e	78
200	0x81	-127
201	0xc5	-59
202	0x42	66
203	0x20	32
204	0x3b	59
205	0xce	-50
206	0xc2	-62
207	0xca	-54
208	0x49	73
209	0x3e	62
210	0x46	70
211	0xda	-38
212	0x0d	13
213	0xb0	-80
214	0xf1	-15
215	0x2d	45
216	0xe9	-23
217	0x0d	13
218	0xd4	-44
219	0x95	-107
220	0xc2	-62
221	0xba	-70
222	0x63	99
223	0x2c	44
224	0x53	83
225	0xfc	-4
226	0x71	113
227	0x55	85
228	0x45	69
229	0x4f	79
230	0x31	49
231	0x27	39
232	0x09	9
233	0x1f	31
234	0xd6	-42
235	0xe7	-25
236	0x4f	79
237	0x44	68
238	0x61	97
239	0xd1	-47
240	0x1e	30
241	0x54	84
242	0x0c	12
243	0x62	98
244	0x17	23
245	0x18	24
246	0xca	-54
247	0xa9	-87
248	0x95	-107
249	0x20	32
250	0xf8	-8
251	0xff	-1
252	0x11	17
253	0x40	64
254	0x22	34
255	0xb8	-72

model_1/block_5_expand/Conv2D i1 [48, 1, 1, 8]
0	0x81	-127
1	0x24	36
2	0xf5	-11
3	0xf3	-13
4	0x32	50
5	0x1a	26
6	0x03	3
7	0xdb	-37
8	0xf8	-8
9	0xcf	-49
10	0xe4	-28
11	0xf7	-9
12	0xcd	-51
13	0x81	-127
14	0x09	9
15	0x0b	11
16	0xc5	-59
17	0x3d	61
18	0xf8	-8
19	0xc6	-58
20	0xd3	-45
21	0x26	38
22	0xc5	-59
23	0x7f	127
24	0x35	53
25	0x28	40
26	0x36	54
27	0xf4	-12
28	0xd1	-47
29	0x81	-127
30	0x2e	46
31	0xe6	-26
32	0x18	24
33	0x45	69
34	0x90	-112
35	0x1d	29
36	0x81	-127
37	0x54	84
38	0x25	37
39	0x27	39
40	0xe1	-31
41	0x2f	47
42	0x1d	29
43	0xe5	-27
44	0xa4	-92
45	0x81	-127
46	0xbd	-67
47	0xf9	-7
48	0xcf	-49
49	0x7f	127
50	0x60	96
51	0xdb	-37
52	0xbc	-68
53	0xe6	-26
54	0x11	17
55	0xd7	-41
56	0xff	-1
57	0x03	3
58	0x28	40
59	0x3a	58
60	0x06	6
61	0x81	-127
62	0xfd	-3
63	0x32	50
64	0x7f	127
65	0x14	20
66	0xb5	-75
67	0x5f	95
68	0x9c	-100
69	0xb5	-75
70	0x8b	-117
71	0xfe	-2
72	0x6c	108
73	0xd6	-42
74	0xb6	-74
75	0xb2	-78
76	0x09	9
77	0xe3	-29
78	0xcb	-53
79	0x7f	127
80	0x9d	-99
81	0x09	9
82	0x08	8
83	0x7f	127
84	0x0b	11
85	0x4e	78
86	0x19	25
87	0x98	-104
88	0x14	20
89	0x14	20
90	0x40	64
91	0xf1	-15
92	0x07	7
93	0x7f	127
94	0x7d	125
95	0x66	102
96	0xb2	-78
97	0x93	-109
98	0xcb	-53
99	0x95	-107
100	0x7f	127
101	0xdf	-33
102	0xf0	-16
103	0x36	54
104	0xe1	-31
105	0x01	1
106	0xf9	-7
107	0x25	37
108	0x1e	30
109	0x81	-127
110	0x35	53
111	0x4c	76
112	0x4c	76
113	0x54	84
114	0x7c	124
115	0x13	19
116	0x53	83
117	0x81	-127
118	0xa7	-89
119	0xed	-19
120	0xda	-38
121	0x52	82
122	0x7f	127
123	0x40	64
124	0xf6	-10
125	0x12	18
126	0x28	40
127	0xbf	-65
128	0xa8	-88
129	0xda	-38
130	0x2d	45
131	0xb2	-78
132	0x7f	127
133	0x10	16
134	0xcc	-52
135	0x0a	10
136	0x29	41
137	0xd1	-47
138	0xcd	-51
139	0xff	-1
140	0xf5	-11
141	0x7f	127
142	0xe8	-24
143	0x25	37
144	0xdd	-35
145	0x7f	127
146	0x5e	94
147	0xbc	-68
148	0xaa	-86
149	0x3d	61
150	0x68	104
151	0xab	-85
152	0x0c	12
153	0x63	99
154	0x54	84
155	0x7f	127
156	0xe5	-27
157	0x1c	28
158	0x17	23
159	0x1a	26
160	0xfe	-2
161	0xfc	-4
162	0x3a	58
163	0x81	-127
164	0xc3	-61
165	0xf7	-9
166	0x45	69
167	0xef	-17
168	0x92	-110
169	0x40	64
170	0x20	32
171	0x81	-127
172	0x65	101
173	0x42	66
174	0x6b	107
175	0x0e	14
176	0x44	68
177	0xd8	-40
178	0xa8	-88
179	0x37	55
180	0x3b	59
181	0xd5	-43
182	0xc9	-55
183	0x7f	127
184	0x16	22
185	0xab	-85
186	0x81	-127
187	0xee	-18
188	0x44	68
189	0xe8	-24
190	0xbd	-67
191	0x4b	75
192	0x2b	43
193	0xf1	-15
194	0xa1	-95
195	0x0b	11
196	0xcf	-49
197	0x2d	45
198	0x81	-127
199	0x71	113
200	0xfa	-6
201	0xf3	-13
202	0x36	54
203	0x04	4
204	0x7f	127
205	0xf8	-8
206	0xaa	-86
207	0xd7	-41
208	0x0c	12
209	0x5b	91
210	0x7f	127
211	0xdb	-37
212	0xeb	-21
213	0xfd	-3
214	0x32	50
215	0xba	-70
216	0xd4	-44
217	0x21	33
218	0x7f	127
219	0xbc	-68
220	0x0e	14
221	0x03	3
222	0x63	99
223	0x87	-121
224	0x2f	47
225	0xf0	-16
226	0x5a	90
227	0x7f	127
228	0x3d	61
229	0xe3	-29
230	0x1e	30
231	0x67	103
232	0x48	72
233	0x43	67
234	0x69	105
235	0x19	25
236	0xbb	-69
237	0x24	36
238	0x81	-127
239	0x66	102
240	0x29	41
241	0xfd	-3
242	0xa6	-90
243	0x3b	59
244	0x81	-127
245	0xdf	-33
246	0xd7	-41
247	0x3b	59
248	0x1a	26
249	0x7f	127
250	0x4a	74
251	0xc8	-56
252	0xc7	-57
253	0x27	39
254	0x63	99
255	0x8a	-118

model_1/block_5_depthwise_BN/FusedBatchNormV3;model_1/block_5_depthwise/depthwise;model_1/block_6_expand/Conv2D i1 [1, 3, 3, 48]
0	0x52	82
1	0x47	71
2	0xf1	-15
3	0x33	51
4	0x07	7
5	0x0a	10
6	0xd0	-48
7	0x17	23
8	0x24	36
9	0xe0	-32
10	0x23	35
11	0x08	8
12	0x0e	14
13	0xa1	-95
14	0xdd	-35
15	0x2a	42
16	0x74	116
17	0x28	40
18	0xb5	-75
19	0xfe	-2
20	0x47	71
21	0x0c	12
22	0xea	-22
23	0xf2	-14
24	0x48	72
25	0x18	24
26	0x0d	13
27	0x00	0
28	0xba	-70
29	0x20	32
30	0xf0	-16
31	0xca	-54
32	0x7f	127
33	0x05	5
34	0x7d	125
35	0x17	23
36	0xdb	-37
37	0x1f	31
38	0x7f	127
39	0x22	34
40	0xb4	-76
41	0x44	68
42	0x89	-119
43	0xc1	-63
44	0x27	39
45	0xa0	-96
46	0xd5	-43
47	0x0d	13
48	0x70	112
49	0x7f	127
50	0xc2	-62
51	0x4f	79
52	0x18	24
53	0x42	66
54	0xc2	-62
55	0x81	-127
56	0x2e	46
57	0x3a	58
58	0x7f	127
59	0x29	41
60	0xf0	-16
61	0xfd	-3
62	0xe8	-24
63	0xff	-1
64	0xb5	-75
65	0x7f	127
66	0xa7	-89
67	0x19	25
68	0x31	49
69	0x7f	127
70	0x23	35
71	0xec	-20
72	0x1c	28
73	0x04	4
74	0x08	8
75	0x7f	127
76	0x81	-127
77	0x6e	110
78	0xe3	-29
79	0x81	-127
80	0xe3	-29
81	0xde	-34
82	0x0e	14
83	0x64	100
84	0xb2	-78
85	0x7f	127
86	0x6a	106
87	0x2a	42
88	0x81	-127
89	0xb1	-79
90	0x4a	74
91	0xf1	-15
92	0x0b	11
93	0x14	20
94	0x81	-127
95	0x56	86
96	0x37	55
97	0x26	38
98	0xfa	-6
99	0x22	34
100	0x0f	15
101	0x05	5
102	0xe1	-31
103	0x1f	31
104	0x25	37
105	0xbc	-68
106	0x22	34
107	0xfb	-5
108	0x09	9
109	0xb9	-71
110	0xe5	-27
111	0xe3	-29
112	0x72	114
113	0x04	4
114	0xdd	-35
115	0xea	-22
116	0x3f	63
117	0x33	51
118	0xe5	-27
119	0x26	38
120	0x33	51
121	0x3e	62
122	0x0d	13
123	0xfb	-5
124	0xe5	-27
125	0x15	21
126	0xe8	-24
127	0xde	-34
128	0x71	113
129	0x0b	11
130	0x7f	127
131	0x0e	14
132	0xe8	-24
133	0x27	39
134	0x64	100
135	0xf6	-10
136	0xd6	-42
137	0x49	73
138	0x31	49
139	0x34	52
140	0x22	34
141	0x4f	79
142	0x02	2
143	0xfc	-4
144	0xec	-20
145	0xc9	-55
146	0x81	-127
147	0x58	88
148	0x1b	27
149	0x43	67
150	0x43	67
151	0xe9	-23
152	0x28	40
153	0x2c	44
154	0xd4	-44
155	0x7f	127
156	0x7f	127
157	0xf0	-16
158	0xe2	-30
159	0xaf	-81
160	0xe7	-25
161	0x59	89
162	0x46	70
163	0xeb	-21
164	0x8f	-113
165	0x08	8
166	0x1d	29
167	0xa1	-95
168	0x1a	26
169	0x3d	61
170	0x10	16
171	0x13	19
172	0x00	0
173	0x61	97
174	0x11	17
175	0x31	49
176	0x1d	29
177	0x7f	127
178	0x11	17
179	0x39	57
180	0x9d	-99
181	0xfc	-4
182	0xbd	-67
183	0x5a	90
184	0x4c	76
185	0x01	1
186	0x4e	78
187	0x92	-110
188	0x11	17
189	0x96	-106
190	0xf2	-14
191	0x7f	127
192	0x2d	45
193	0x90	-112
194	0xdc	-36
195	0x81	-127
196	0x7f	127
197	0x07	7
198	0x7f	127
199	0x9e	-98
200	0x81	-127
201	0x5f	95
202	0x05	5
203	0x3a	58
204	0xa0	-96
205	0x7f	127
206	0x7f	127
207	0xeb	-21
208	0x81	-127
209	0x41	65
210	0x0c	12
211	0x7f	127
212	0x1b	27
213	0xeb	-21
214	0x7f	127
215	0x02	2
216	0x81	-127
217	0x7f	127
218	0x1f	31
219	0xb6	-74
220	0xb2	-78
221	0x1c	28
222	0x81	-127
223	0x5a	90
224	0x54	84
225	0xa6	-90
226	0x00	0
227	0x7c	124
228	0x7f	127
229	0x3a	58
230	0xef	-17
231	0x7f	127
232	0x70	112
233	0xb8	-72
234	0xe3	-29
235	0x06	6
236	0x79	121
237	0xc3	-61
238	0xfa	-6
239	0x28	40
240	0xf4	-12
241	0xc8	-56
242	0x81	-127
243	0x2b	43
244	0xf7	-9
245	0x7f	127
246	0x2e	46
247	0xea	-22
248	0x25	37
249	0x1c	28
250	0xdc	-36
251	0x26	38
252	0xf8	-8
253	0x05	5
254	0xe0	-32
255	0xe5	-27

model_1/block_5_project/Conv2D i1 [8, 1, 1, 48]
0	0x7f	127
1	0xe1	-31
2	0x13	19
3	0xe8	-24
4	0x18	24
5	0x3d	61
6	0x08	8
7	0x23	35
8	0x7b	123
9	0xa6	-90
10	0x35	53
11	0x0e	14
12	0xcb	-53
13	0x3e	62
14	0x0f	15
15	0xcd	-51
16	0x0f	15
17	0xe8	-24
18	0xe6	-26
19	0xf0	-16
20	0x11	17
21	0xc4	-60
22	0x07	7
23	0xed	-19
24	0xce	-50
25	0xdb	-37
26	0xdb	-37
27	0xd2	-46
28	0xe4	-28
29	0x55	85
30	0xe4	-28
31	0x22	34
32	0x15	21
33	0xda	-38
34	0x07	7
35	0xde	-34
36	0x43	67
37	0xbf	-65
38	0xce	-50
39	0x06	6
40	0x16	22
41	0xf1	-15
42	0xb7	-73
43	0xf5	-11
44	0x3c	60
45	0xda	-38
46	0x36	54
47	0xd5	-43
48	0x33	51
49	0x01	1
50	0xf5	-11
51	0x42	66
52	0x2e	46
53	0x41	65
54	0x0d	13
55	0x23	35
56	0x4d	77
57	0xae	-82
58	0xfd	-3
59	0x0a	10
60	0x24	36
61	0x12	18
62	0xd8	-40
63	0xee	-18
64	0xd8	-40
65	0xd8	-40
66	0xb7	-73
67	0xf8	-8
68	0x09	9
69	0xd6	-42
70	0x31	49
71	0x4e	78
72	0xff	-1
73	0xc9	-55
74	0xff	-1
75	0x26	38
76	0xec	-20
77	0x3c	60
78	0xc8	-56
79	0x7f	127
80	0xe3	-29
81	0x30	48
82	0xe1	-31
83	0xe3	-29
84	0xc6	-58
85	0xf0	-16
86	0xf8	-8
87	0xe4	-28
88	0xca	-54
89	0xef	-17
90	0xdb	-37
91	0x22	34
92	0x12	18
93	0xf2	-14
94	0x05	5
95	0xb1	-79
96	0xe4	-28
97	0xef	-17
98	0xb1	-79
99	0x18	24
100	0xa7	-89
101	0xd7	-41
102	0xf2	-14
103	0x35	53
104	0x81	-127
105	0xb6	-74
106	0xad	-83
107	0xe1	-31
108	0xe6	-26
109	0x39	57
110	0x85	-123
111	0x04	4
112	0x4a	74
113	0xa2	-94
114	0x23	35
115	0xec	-20
116	0x72	114
117	0x5b	91
118	0xea	-22
119	0xfd	-3
120	0x2d	45
121	0x65	101
122	0x06	6
123	0xa6	-90
124	0xc5	-59
125	0xfb	-5
126	0x46	70
127	0x08	8
128	0xec	-20
129	0x25	37
130	0x58	88
131	0xbd	-67
132	0x3e	62
133	0xf7	-9
134	0x53	83
135	0x64	100
136	0xdd	-35
137	0x62	98
138	0x27	39
139	0x08	8
140	0xa1	-95
141	0x55	85
142	0xdb	-37
143	0x52	82
144	0x04	4
145	0xeb	-21
146	0xee	-18
147	0x2d	45
148	0xe8	-24
149	0x0c	12
150	0xf5	-11
151	0x31	49
152	0x56	86
153	0x60	96
154	0x81	-127
155	0xe5	-27
156	0x14	20
157	0xe9	-23
158	0xe3	-29
159	0x4c	76
160	0xc3	-61
161	0xee	-18
162	0xf0	-16
163	0x31	49
164	0xe9	-23
165	0x07	7
166	0x49	73
167	0x1b	27
168	0x08	8
169	0x16	22
170	0xd1	-47
171	0x3d	61
172	0xe0	-32
173	0x16	22
174	0xd3	-45
175	0xdd	-35
176	0x08	8
177	0x20	32
178	0x1b	27
179	0x12	18
180	0x34	52
181	0xfb	-5
182	0x28	40
183	0xfb	-5
184	0xc1	-63
185	0x61	97
186	0x4a	74
187	0x15	21
188	0x23	35
189	0xee	-18
190	0xdd	-35
191	0xdb	-37
192	0xec	-20
193	0xc0	-64
194	0x15	21
195	0xcf	-49
196	0x07	7
197	0x51	81
198	0xcd	-51
199	0xbf	-65
200	0xf8	-8
201	0xdb	-37
202	0x4b	75
203	0x25	37
204	0xd0	-48
205	0xee	-18
206	0xf5	-11
207	0x1b	27
208	0x40	64
209	0x07	7
210	0xe5	-27
211	0x2f	47
212	0xb4	-76
213	0xe8	-24
214	0x72	114
215	0xeb	-21
216	0xa2	-94
217	0xe9	-23
218	0xff	-1
219	0x14	20
220	0x0d	13
221	0xe4	-28
222	0xf6	-10
223	0x35	53
224	0xd5	-43
225	0x26	38
226	0xf3	-13
227	0x36	54
228	0xde	-34
229	0x20	32
230	0xfa	-6
231	0x13	19
232	0xe4	-28
233	0x1f	31
234	0xde	-34
235	0x2d	45
236	0x7f	127
237	0x3d	61
238	0xfa	-6
239	0x09	9
240	0xbb	-69
241	0xc0	-64
242	0x33	51
243	0x81	-127
244	0xe8	-24
245	0x17	23
246	0xdc	-36
247	0xc5	-59
248	0xfe	-2
249	0x40	64
250	0xc9	-55
251	0x43	67
252	0xb3	-77
253	0x14	20
254	0x2f	47
255	0x0d	13
